Source_Code/mlx_sensor_model_quantized.tflite (tflite, 4480 bytes, 2 tensors)

tfl.pseudo_qconst1 i1 [4, 64]
0	0x57	87
1	0x2d	45
2	0x3c	60
3	0x18	24
4	0x42	66
5	0xf7	-9
6	0x0c	12
7	0xc0	-64
8	0xb9	-71
9	0x37	55
10	0x20	32
11	0x21	33
12	0x95	-107
13	0xff	-1
14	0x4f	79
15	0x37	55
16	0x0a	10
17	0x65	101
18	0xf4	-12
19	0xed	-19
20	0x34	52
21	0x0b	11
22	0xdb	-37
23	0x48	72
24	0xf9	-7
25	0xd6	-42
26	0x36	54
27	0xb6	-74
28	0x0f	15
29	0xfd	-3
30	0xee	-18
31	0x3b	59
32	0xe9	-23
33	0x57	87
34	0xcd	-51
35	0x05	5
36	0x34	52
37	0xcc	-52
38	0x31	49
39	0x2b	43
40	0x13	19
41	0xe5	-27
42	0x81	-127
43	0x00	0
44	0x10	16
45	0x4a	74
46	0x1f	31
47	0x1b	27
48	0xaa	-86
49	0xe7	-25
50	0x2f	47
51	0xd9	-39
52	0xcd	-51
53	0x3f	63
54	0xea	-22
55	0x38	56
56	0x02	2
57	0x32	50
58	0x3b	59
59	0x4c	76
60	0xcd	-51
61	0x46	70
62	0xe1	-31
63	0x2b	43
64	0xb1	-79
65	0x21	33
66	0x53	83
67	0x53	83
68	0x16	22
69	0xc7	-57
70	0x40	64
71	0xf3	-13
72	0x42	66
73	0xb0	-80
74	0x26	38
75	0xb9	-71
76	0x22	34
77	0x25	37
78	0xe1	-31
79	0x2b	43
80	0x0c	12
81	0xcd	-51
82	0x05	5
83	0xd8	-40
84	0x51	81
85	0x42	66
86	0x9a	-102
87	0x40	64
88	0xe6	-26
89	0xd5	-43
90	0x41	65
91	0xeb	-21
92	0x09	9
93	0xc3	-61
94	0x4b	75
95	0x0d	13
96	0xda	-38
97	0x14	20
98	0x81	-127
99	0x57	87
100	0x57	87
101	0xfd	-3
102	0xb5	-75
103	0x17	23
104	0x16	22
105	0x43	67
106	0xfd	-3
107	0x12	18
108	0x9b	-101
109	0xbb	-69
110	0xdd	-35
111	0xd0	-48
112	0xc1	-63
113	0xcd	-51
114	0x03	3
115	0xf0	-16
116	0x45	69
117	0x09	9
118	0xf8	-8
119	0x16	22
120	0x46	70
121	0x11	17
122	0x40	64
123	0x3c	60
124	0x47	71
125	0x42	66
126	0x51	81
127	0x04	4
128	0xfa	-6
129	0x27	39
130	0xc8	-56
131	0xb5	-75
132	0xd9	-39
133	0x3e	62
134	0xd2	-46
135	0xe3	-29
136	0xde	-34
137	0xa9	-87
138	0x06	6
139	0x24	36
140	0xe2	-30
141	0x4f	79
142	0x42	66
143	0xd0	-48
144	0xc9	-55
145	0x09	9
146	0xd9	-39
147	0xae	-82
148	0xb6	-74
149	0xe5	-27
150	0xff	-1
151	0xac	-84
152	0xcf	-49
153	0xe6	-26
154	0x33	51
155	0xf0	-16
156	0x0a	10
157	0xbc	-68
158	0x7f	127
159	0xe6	-26
160	0x33	51
161	0x54	84
162	0xeb	-21
163	0x1c	28
164	0xf8	-8
165	0x21	33
166	0x19	25
167	0x03	3
168	0xbb	-69
169	0xf5	-11
170	0x73	115
171	0x3d	61
172	0x50	80
173	0xfc	-4
174	0x4d	77
175	0x51	81
176	0x15	21
177	0x43	67
178	0x4d	77
179	0x3c	60
180	0xa1	-95
181	0x23	35
182	0xf1	-15
183	0x01	1
184	0xd1	-47
185	0xc3	-61
186	0xc5	-59
187	0x40	64
188	0xe0	-32
189	0x07	7
190	0x2d	45
191	0xec	-20
192	0xcc	-52
193	0x1d	29
194	0x03	3
195	0x0f	15
196	0x2a	42
197	0x41	65
198	0x39	57
199	0xcf	-49
200	0x1e	30
201	0x47	71
202	0x57	87
203	0x1b	27
204	0x53	83
205	0x06	6
206	0xe6	-26
207	0x44	68
208	0x2d	45
209	0x19	25
210	0xcb	-53
211	0x2b	43
212	0x1e	30
213	0xc6	-58
214	0x16	22
215	0xd9	-39
216	0xf8	-8
217	0x06	6
218	0xf9	-7
219	0x57	87
220	0x7f	127
221	0x22	34
222	0x11	17
223	0x1f	31
224	0xbf	-65
225	0xdc	-36
226	0x50	80
227	0x5f	95
228	0x5e	94
229	0x0d	13
230	0x08	8
231	0xd6	-42
232	0xb9	-71
233	0xcb	-53
234	0x8c	-116
235	0xda	-38
236	0x29	41
237	0xbf	-65
238	0xe2	-30
239	0x50	80
240	0x0a	10
241	0x36	54
242	0x01	1
243	0x13	19
244	0x4f	79
245	0xc5	-59
246	0xc0	-64
247	0x3f	63
248	0x28	40
249	0xe0	-32
250	0xdd	-35
251	0xe4	-28
252	0x00	0
253	0x3c	60
254	0x22	34
255	0xd8	-40

tfl.pseudo_qconst3 i1 [64, 4]
0	0x7f	127
1	0xdc	-36
2	0x24	36
3	0xcc	-52
4	0x13	19
5	0x7f	127
6	0x1c	28
7	0x25	37
8	0x81	-127
9	0x64	100
10	0x52	82
11	0x8c	-116
12	0x7f	127
13	0xd2	-46
14	0xfa	-6
15	0x98	-104
16	0x05	5
17	0xf7	-9
18	0x81	-127
19	0xf6	-10
20	0x20	32
21	0x61	97
22	0x81	-127
23	0xf6	-10
24	0x5e	94
25	0xdf	-33
26	0x1e	30
27	0x81	-127
28	0xf2	-14
29	0x7f	127
30	0x8b	-117
31	0xfc	-4
32	0x40	64
33	0x07	7
34	0x27	39
35	0x81	-127
36	0xf1	-15
37	0x81	-127
38	0xdc	-36
39	0x75	117
40	0x07	7
41	0x7f	127
42	0xbf	-65
43	0x72	114
44	0x7f	127
45	0x83	-125
46	0x19	25
47	0x1e	30
48	0x81	-127
49	0x0f	15
50	0xcb	-53
51	0x48	72
52	0x9f	-97
53	0xce	-50
54	0x7f	127
55	0x1c	28
56	0x56	86
57	0xdc	-36
58	0x7f	127
59	0x52	82
60	0x10	16
61	0xd8	-40
62	0x27	39
63	0x81	-127
64	0x7f	127
65	0xc6	-58
66	0xd6	-42
67	0xe3	-29
68	0x7f	127
69	0xb8	-72
70	0x02	2
71	0x2a	42
72	0x81	-127
73	0xae	-82
74	0xd0	-48
75	0x25	37
76	0x53	83
77	0x7f	127
78	0x88	-120
79	0x98	-104
80	0x0b	11
81	0x0a	10
82	0xd5	-43
83	0x81	-127
84	0xde	-34
85	0x7f	127
86	0xcf	-49
87	0x9f	-97
88	0xdf	-33
89	0x81	-127
90	0x2b	43
91	0x2a	42
92	0x50	80
93	0xff	-1
94	0xd3	-45
95	0x81	-127
96	0x81	-127
97	0x45	69
98	0x2f	47
99	0xc3	-61
100	0x8b	-117
101	0x7f	127
102	0xfd	-3
103	0xbc	-68
104	0x8a	-118
105	0x81	-127
106	0xeb	-21
107	0xee	-18
108	0x96	-106
109	0xf9	-7
110	0xea	-22
111	0x7f	127
112	0xf7	-9
113	0xca	-54
114	0xe2	-30
115	0x7f	127
116	0x81	-127
117	0xc1	-63
118	0xe0	-32
119	0xe3	-29
120	0xe2	-30
121	0x1a	26
122	0x7f	127
123	0x0c	12
124	0x6a	106
125	0x81	-127
126	0xca	-54
127	0xd1	-47
128	0xdf	-33
129	0x2a	42
130	0x81	-127
131	0x3b	59
132	0x7f	127
133	0x56	86
134	0x7d	125
135	0x15	21
136	0xc2	-62
137	0x81	-127
138	0x1b	27
139	0x4f	79
140	0x79	121
141	0x7f	127
142	0xf5	-11
143	0x43	67
144	0xf1	-15
145	0x7f	127
146	0x4b	75
147	0x6a	106
148	0x81	-127
149	0x8a	-118
150	0x67	103
151	0x48	72
152	0x87	-121
153	0x0b	11
154	0x54	84
155	0x81	-127
156	0xa6	-90
157	0x81	-127
158	0xf0	-16
159	0xef	-17
160	0xc9	-55
161	0x46	70
162	0x81	-127
163	0x18	24
164	0x81	-127
165	0x92	-110
166	0xae	-82
167	0x1e	30
168	0x81	-127
169	0x43	67
170	0x6c	108
171	0xc0	-64
172	0xd7	-41
173	0x81	-127
174	0x99	-103
175	0xa5	-91
176	0x10	16
177	0x81	-127
178	0x67	103
179	0x3d	61
180	0xba	-70
181	0xd1	-47
182	0x81	-127
183	0xeb	-21
184	0x81	-127
185	0x69	105
186	0x8c	-116
187	0x08	8
188	0x4a	74
189	0xf6	-10
190	0x7f	127
191	0x1b	27
192	0x81	-127
193	0xb9	-71
194	0x37	55
195	0x3f	63
196	0x7f	127
197	0x9a	-102
198	0xf7	-9
199	0xae	-82
200	0xb9	-71
201	0xbf	-65
202	0xca	-54
203	0x81	-127
204	0xb4	-76
205	0xd8	-40
206	0x7f	127
207	0x32	50
208	0xeb	-21
209	0x7f	127
210	0xc6	-58
211	0x67	103
212	0x7f	127
213	0x0b	11
214	0x54	84
215	0x92	-110
216	0x7f	127
217	0xa4	-92
218	0xfb	-5
219	0xab	-85
220	0x81	-127
221	0x65	101
222	0x83	-125
223	0x18	24
224	0x7f	127
225	0xfc	-4
226	0x09	9
227	0x4b	75
228	0x79	121
229	0x81	-127
230	0xe4	-28
231	0xe2	-30
232	0xbf	-65
233	0x81	-127
234	0xbd	-67
235	0x31	49
236	0x81	-127
237	0x48	72
238	0x8f	-113
239	0xcc	-52
240	0xac	-84
241	0xa7	-89
242	0xef	-17
243	0x81	-127
244	0x81	-127
245	0x0f	15
246	0x10	16
247	0x9e	-98
248	0x2b	43
249	0x7f	127
250	0x7d	125
251	0x3b	59
252	0x7f	127
253	0x78	120
254	0xb2	-78
255	0xb7	-73
